model/model.pth (torch, 17216 bytes, 4 tensors)

linear1.weight f4 [256, 11]
00000000: deaa 253e 2078 6f3e 74fa 713e 52ee 71be
00000010: 2dea 96be b842 053e 06ff eebd 09b0 93be
00000020: 4b69 13be 731a 06be 7ad8 65be b247 5cbe
00000030: e0c6 773d 4e16 323e 4243 4dbe deaf f5bd
00000040: c0e2 a63c 844d 513e 4f28 28be 20a0 84be
00000050: 143f 39be 88e1 a83d 6b9b 553d 5c66 45be
00000060: 1cca 803e 25e1 ae3e 8472 10be 5fbb 7c3d
00000070: c2d8 71be 605c ecbd d7f6 493c aa38 4f3e
00000080: 0652 60be 0461 5f3e 3d2f 37be d26c 393e
00000090: 60a1 95be 18e1 0abe d2b2 d63d 96a9 c7bd
000000a0: bd40 2d3e 16e3 2cbe f71c 93bd 5a4c 7f3e
000000b0: ef28 9abd e8fd da3d 45c0 b4be 3cc0 c53e
000000c0: 5f8e e1bd 1168 5c3e aa7e 7abe 7896 11bd
000000d0: 0bc3 9c3d 060b 03bc 8a62 883e 123d d13d
000000e0: 98b3 9b3e d44c 063e 003d 973e 024b 6fbe
000000f0: 6012 893e 7792 613e f7d2 a53e 562a 123e
00000100: 0e29 f9bd 301e 9fbd ff7f 01be bdf3 3e3e
00000110: 0ede 17be 3c96 2f3e 95e6 0e3e 324f 8ebe
00000120: f2c0 f3bd d65a 303d 1a8a 4dbe 8fac 71bd
00000130: 295b cebd 3243 28be b8c1 1bbc 41d8 033e
00000140: a89c 223d cdcc 193e fe65 1bbe b069 9bbe
00000150: 2970 d23c ee3a 043e 47df 7c3e 2118 d13c
00000160: 8095 dcbd 461d f4bd 156e 3c3e 9a30 8b3e
00000170: f59b dc3d a92e 803e f07d c4bc d784 3b3d
00000180: 17e3 bd3d ad4e 6cbd ef4d 27be a452 093d
00000190: caa9 803d 77da 913d d2c6 d23d 67c5 94be
000001a0: 540a 26be a54d 3cbe 5e30 533e fc7b 2ebe
000001b0: 2b6b fe3d 04cf c03d ff98 3a3e ebc6 f2bd
000001c0: 52e3 97be 5721 76be b71e 20be 7fa2 953d
000001d0: def7 833c e617 ad3e 7d78 d2bd 2f8e 68bd
000001e0: 09b8 783e b365 0f3d 7cfd 593e de13 85be
000001f0: af55 e0bd 966f 0c3e d2a5 2ebd 4297 c0bb
00000200: b3e0 80be becd 21be 3d43 8abe d37a 423e
00000210: e411 70be e9b4 5cbe 237b b03e 3878 cf3d
00000220: d6fd 21be 0485 21be d3ca 19be 73b1 d33c
00000230: 005c 903e 2174 04be 0ce1 f93c 0f39 e9bd
00000240: 339e 2c3e 7ddf aa3e 746d 03bd 5bdd f93c
00000250: 942d 18bd b897 723e 3269 9a3e 4b4c 783c
00000260: 4b88 5dbe 0f96 883e 2221 3bbe f88a 673e
00000270: 5345 973d 2506 a73d 7835 5cbd 3542 623e
00000280: ebb0 5f3e c8eb ac3d f78c 5bbe 70bf ee3a
00000290: 0033 e3bd 337d 31be e393 9dbe 2eab 1a3e
000002a0: 0b10 77be cdc5 7fbe d3d1 4cbe 57e2 39be
000002b0: ef59 e43d 7ebd 6dbe cf04 8e3e 60c8 11be
000002c0: b02e b7bc 004c 7c3e a02f 0b3d 8005 c13c
000002d0: dcba 7dbd 2208 44be e4f5 283e ea1e 9abe
000002e0: a204 5dbe b874 98be 4a27 bfbd d210 2f3e
000002f0: 843e 813d 28c4 1c3e 555e f2bd 5323 89bc
00000300: 6a3a 673e 91fd 7fbe 3949 b6bc 15e6 543e
00000310: 4ba5 97be d9aa adbe 9a39 65bd bb7b 3f3d
00000320: 5c06 c13e 966a c9bc 6b92 5e3e bddf c03b
00000330: ec8a 973e 4c23 603e bde1 853c e24c 6c3e
00000340: e0fe aabc 1ce9 843e e216 383e c096 423e
00000350: fa48 3bbe fa97 67bd 76aa 92be 2910 91be
00000360: f30c 3d3d 432f 96be cce6 99be 97cc 7dbe
00000370: dac4 0abe 85b6 16be f857 cf3e c203 893e
00000380: 09b1 203e 2711 bbbd f033 8cbc 72e7 7f3e
00000390: e364 803e 6fbf f7bd 12dd 023e 96bd 8bbe
000003a0: 4a77 72bd 650b 883e f2ba 5d3e 15ea 30be
000003b0: 8ded 2f3e ef8b 4fbd 29a1 63bd 1901 8ebd
000003c0: ed31 38be 737d 33be 6c35 00be 9b74 083e
000003d0: f026 2a3e bf7d b03e e162 483e 38d3 743e
000003e0: c58f cf3d 0718 a8be 186f fe3d 66a8 f23d
000003f0: cc8d 2b3e 43ed 593e c0d5 583e 634f 0a3e
0.16178462 0.23385668 0.23630697 -0.23626068 -0.29475537 0.13013732 -0.116697356 -0.28845242
-0.14395635 -0.13096027 -0.2244586 -0.21511725 0.060492396 0.17391321 -0.20045188 -0.11996435
0.020371795 0.20439726 -0.16421627 -0.25903416 -0.18090469 0.08246142 0.05215017 -0.19277328
0.25154197 0.34156147 -0.14106184 0.06170213 -0.23617843 -0.11541057 0.012326918 0.2023646
-0.2190629 0.21814352 -0.17889114 0.18107918 -0.29224682 -0.13562429 0.10483326 -0.09749143
0.16919227 -0.16883501 -0.07183259 0.2493147 -0.07527339 0.1069296 -0.3530294 0.38623226
-0.11013483 0.21524073 -0.24462381 -0.03554389 0.07654389 -0.007998234 0.2663768 0.10216726
0.30410457 0.13115245 0.29538727 -0.23368457 0.26771832 0.22028528 0.32387516 0.14273962
-0.12166034 -0.0776943 -0.12646483 0.18647666 -0.14830801 0.17147154 0.13955148 -0.27794796
-0.11902036 0.043055378 -0.20072213 -0.059002455 -0.10075981 -0.16431883 -0.009506635 0.12875463
0.03970018 0.15019532 -0.15175626 -0.3035407 0.025688248 0.12913105 0.24694549 0.0255242
-0.10770702 -0.11919646 0.18401368 0.27185518 0.10771934 0.250356 -0.023985833 0.045780983
0.092718296 -0.05769222 -0.16338323 0.033526078 0.06282385 0.07121747 0.10291828 -0.29056856
-0.16214877 -0.18388994 0.2062392 -0.17039484 0.124227844 0.09414485 0.18222426 -0.11854347
-0.2966562 -0.24036156 -0.15636717 0.07306384 0.016109403 0.33807296 -0.102768876 -0.05677622
0.24288954 0.035009097 0.21288103 -0.2599172 -0.10953843 0.13714442 -0.042638607 -0.0058774063
-0.25171432 -0.1580114 -0.27004424 0.18992166 -0.23444325 -0.21553387 0.34468946 0.10130352
-0.15819487 -0.15773398 -0.15018778 0.02584145 0.2819519 -0.12934925 0.030502819 -0.11387836
0.16857223 0.33373633 -0.032086805 0.030501058 -0.03715284 0.23690689 0.30158383 0.015154908
-0.21634023 0.26676986 -0.18274358 0.22611606 0.073862694 0.08155469 -0.05376193 0.22095568
0.21844833 0.08443409 -0.21440493 0.0018215012 -0.11093712 -0.17332916 -0.3077689 0.15104362
-0.24127214 -0.24977799 -0.20001917 -0.18152748 0.11149966 -0.23216817 0.27738044 -0.14236593
-0.02236113 0.24638367 0.033980966 0.023562193 -0.06194578 -0.19143727 0.1650005 -0.3010171
-0.21583799 -0.2977655 -0.09333666 0.1709626 0.06310752 0.15309203 -0.11834399 -0.016740477
0.22580877 -0.24999072 -0.022251712 0.20790894 -0.29618296 -0.3391941 -0.055963136 0.046748858
0.37700164 -0.024586957 0.21735542 0.0058860467 0.29598176 0.21888465 0.016342992 0.23076203
-0.020873487 0.25959098 0.17977479 0.19002819 -0.18289557 -0.05654142 -0.28645676 -0.28332642
0.046154927 -0.29332933 -0.30058897 -0.24785076 -0.13551655 -0.14718063 0.40496802 0.2676068
0.15692534 -0.09134131 -0.01711461 0.24990633 0.2507697 -0.1209706 0.12779644 -0.2729308
-0.059195794 0.26571193 0.21653345 -0.17276795 0.17180462 -0.05067056 -0.055573616 -0.06933803
-0.17987795 -0.17528324 -0.12520379 0.13325731 0.16616416 0.34470937 0.1956897 0.23908699
0.10134844 -0.3283083 0.12423533 0.11848526 0.1675331 0.21281914 0.21175289 0.13506846

linear1.bias f4 [256]
00000000: c216 4bbe d28d 4dbe a7a0 b9bd 7b6d 1bbe
00000010: 42d8 0ebe d2f4 e7bd 440a aa3d db0a 8d3e
00000020: 3375 90be ce99 78be b5ac 903e 2823 a23d
00000030: 5881 2ebd 0ca1 7ebd 112a b0be 60d3 eb3d
00000040: 3e93 0abe 510d b8bd 00e0 80bd 5efc 43bd
00000050: 19b1 903c 5652 c63c 1071 4e3e 64d4 61bc
00000060: e644 d43d 3ae8 b4bd ab75 2ebe b233 b93d
00000070: c355 14bd 6684 78bc 126c 10be a16d 1b3e
00000080: b647 cfbc 49c2 26be adf3 63bd 68b3 c43d
00000090: 4462 c03d fdcc 2a3d ed3b 513c f202 b5bd
000000a0: 986b 30be f692 783e c5f3 5a3e 7224 45be
000000b0: d3aa 9b3d 1b27 2b3d 41e1 27be 6146 e53c
000000c0: e02b 873e b4ab 7abe cc81 cebc 4c6f 2fbd
000000d0: 63d5 673e 7c7e be3d aa62 943e 03e2 23be
000000e0: 5a9a f5bd ec73 43bd abdb 8c3d 7093 c53e
000000f0: 6313 4dbe 7c92 67be d39c 76be 8725 393e
00000100: 228f b83d 901b 473e 908c 303e f94b 0ebc
00000110: d268 98bd 524e 7ebe f6e4 65be 1664 68be
00000120: 98e7 3b3e 909a 133e 927a 853e a2d4 ba3d
00000130: 18df 66bc 225b 003d 0d0b 503d 32ec 93be
00000140: eadb 773d a6be 78be 2d8b 8fbd fdd7 043e
00000150: fa47 0cbe 27ff 95be e3c2 153e 046b c0bd
00000160: 2a28 45be d664 7d3e c875 623e c2a0 25be
00000170: 38bb 923c a6d0 393c dee2 97bd 542e 82be
00000180: cb8f 84be 8233 473e 835d 543e 9edb b3bd
00000190: ec79 913d 4986 3abe 546b 9f3e f65b 7fbe
000001a0: 3d8e 88be 9a3b 32bd 8112 203e 59a7 6cbe
000001b0: 402e 67bc 9a55 cf3d 08f6 8dbe 54ed cdbc
000001c0: 1791 f8bd f1a1 5abe 4d48 0ebd b313 883e
000001d0: e404 133e ac2f 73bd 2ae9 373e f549 f53d
000001e0: b0e5 5f3e 8ffc 5b3e cb78 f73d 1c2f 71be
000001f0: 736c 77be b5e2 98be 8d8d 10bd afdc 3a3c
00000200: 60a4 ab3b 677d 6ebd 7cbe 0a3d 782f ad3d
00000210: 3971 eb3d 8757 81bd 631c 1cbc 05ff de3d
00000220: 2376 74be 1d67 65be 8642 853d 2a42 b63e
00000230: 9fcc 443d 6307 af3e f8a2 f2bd b18f 63bd
00000240: e030 78bd 0396 8abc 47ab f13c 6588 3f3e
00000250: 3c8c c73d 4dbd e63b 2ea7 ce3e 370a 4dbe
00000260: 3b07 933e 8066 e63d fd32 593e 4efd 52be
00000270: 233b 753e 2187 2a3d 2914 19be fa25 373e
00000280: 94ab 97be 621f 383e ba3a 9cbd 1c0d 893e
00000290: d0dd a33e 7615 373c d929 843e d610 1c3e
000002a0: aaca 8b3e 27df 5ebe 2005 213e 1f47 85be
000002b0: eb8e 52bd a5d8 993d 15ad 923d b9f7 483e
000002c0: aca1 0dbd ed9b b8be f62d 843d 1289 3cbe
000002d0: b6a7 d23d abaf 533d b8ee 953e 156c 0f3d
000002e0: b707 87be 8adb c63e 9b03 543c 7996 33be
000002f0: 27e4 e63c 7189 8d3e 8704 a33e e19a a13e
00000300: 1f63 283b 7371 223e e35a c43e d1bc ac3e
00000310: fce0 20bc 1496 7e3e fc5d 763e 7d2a 29be
00000320: 780c 043c 65bd 4b3e 9f67 d0bd 5862 74be
00000330: 1caf a73d 1ee9 74be d6ed 48be 8fa9 973d
00000340: adad 88be 2a3b 523e 89a6 9c3d 900c 73bc
00000350: 2d01 2f3a 18fb 2e3d 19fb 633e 4500 85bd
00000360: d73e 353c 330c f83d 1059 523e dd30 993e
00000370: f144 073e f490 843e 4234 25be a620 e1bc
00000380: 58c8 87b8 6cd9 8abe 98f3 0e3e 695b 61bd
00000390: 0071 ecbc 8a44 953d 9731 96be 1708 b93e
000003a0: 903d 21bd 9fb7 8f3b 1fe6 3bbd ed7e 8a3e
000003b0: ae8a 343e 4284 04be 471a d63d d40f a23b
000003c0: c833 5b3d ff33 99be 77d8 233e c364 253e
000003d0: 2cb7 5b3d 48c0 6abe 8e33 44be 5252 76be
000003e0: 0eb5 65be 186f 24be 3857 243e 37c8 63be
000003f0: df65 38bd 944a 66be 8140 4abe e5df 38be
-0.198329 -0.20073631 -0.09063845 -0.15178482 -0.13949683 -0.11325993 0.08302739 0.27547345
-0.28214416 -0.24277422 0.28256765 0.07916862 -0.04260382 -0.062165305 -0.34407094 0.11514926
-0.13532731 -0.08986915 -0.062927246 -0.047848098 0.017662572 0.024209183 0.20160317 -0.013783548
0.10364704 -0.08833356 -0.17037074 0.09043063 -0.0362146 -0.015168285 -0.14103726 0.15178539
-0.02530275 -0.16285051 -0.05565231 0.096045315 0.09393743 0.0416994 0.012770635 -0.088384524
-0.17228544 0.24274811 0.21382053 -0.19252184 0.076009415 0.04178534 -0.16394521 0.02798766
0.2640066 -0.24479562 -0.025208376 -0.04283075 0.22639994 0.09301469 0.28981525 -0.16004185
-0.11992331 -0.047717974 0.06877836 0.38589048 -0.20026927 -0.22614473 -0.24083261 0.18080722
0.090116754 0.19444108 0.1724112 -0.0086851055 -0.07441868 -0.24834564 -0.22450623 -0.2269443
0.18350065 0.1441443 0.26070076 0.09122588 -0.014091276 0.03133691 0.05079179 -0.2889114
0.06051246 -0.24291477 -0.070089675 0.12973018 -0.13699332 -0.29296228 0.14625125 -0.093954116
-0.19253603 0.24745497 0.22115242 -0.16174605 0.017911538 0.01134125 -0.07416318 -0.2542597
-0.25890955 0.19453242 0.20738797 -0.08782123 0.07103333 -0.18215288 0.31136572 -0.24937424
-0.2667102 -0.04351387 0.15632059 -0.23110713 -0.014110148 0.10123749 -0.2772677 -0.02513758
-0.12137049 -0.21350838 -0.03473692 0.2657753 0.14357334 -0.059371635 0.17960039 0.11976997
0.21864963 0.21483062 0.12083586 -0.23553127 -0.24162464 -0.29860464 -0.035291243 0.011405154
0.005238101 -0.05822506 0.033873066 0.084563196 0.11496205 -0.06315523 -0.009528252 0.10888485
-0.2387319 -0.22402616 0.06506829 0.35597354 0.048046704 0.34185323 -0.1184749 -0.055556957
-0.060593486 -0.016917234 0.029500617 0.18704374 0.097435445 0.0070416094 0.40361923 -0.20023428
0.28716454 0.11250019 0.21210857 -0.2060444 0.2394834 0.041632775 -0.14949097 0.1788558
-0.2962309 0.17980722 -0.07628389 0.26767814 0.32005167 0.01117455 0.25813177 0.15240797
0.27303058 -0.21764813 0.15724611 -0.26030824 -0.05140583 0.07512025 0.07161919 0.19625749
-0.03457801 -0.36056462 0.06454079 -0.18411663 0.102858946 0.051681202 0.2928369 0.035015184
-0.26373073 0.3883937 0.012940313 -0.1753787 0.028184963 0.27643922 0.31839392 0.31563476
0.0025693846 0.1586359 0.3835059 0.33737805 -0.009819265 0.24861938 0.2405929 -0.16520114
0.008059613 0.19896467 -0.10176014 -0.2386564 0.08187696 -0.23917052 -0.19621977 0.074053876
-0.26695004 0.20530382 0.076489516 -0.014834538 0.00066758954 0.04271993 0.22263755 -0.06494192
0.0110623455 0.12111702 0.20541787 0.29920092 0.13209893 0.2589184 -0.16133216 -0.027481388
-6.4746186e-05 -0.27119005 0.13960111 -0.055018816 -0.028862476 0.072884634 -0.2933471 0.36138985
-0.03936535 0.004385903 -0.045873757 0.27049962 0.17631027 -0.12941077 0.10454231 0.0049457345
0.05351618 -0.29922482 0.16000544 0.16151719 0.053641483 -0.22924912 -0.19160292 -0.2405484
-0.22432348 -0.16058004 0.16048896 -0.22244345 -0.045019027 -0.22489387 -0.19751169 -0.18054159

linear2.weight f4 [3, 256]
00000000: 0c8c 86bc 68fa ccbb c27f 5cbd ecf5 80bc
00000010: c31f bdbd 698d f3bc 5663 debc 227d 8dbc
00000020: b65c 87bc c6ad 453d 251d 02be 6b9e 1b3d
00000030: 7784 0a3c dfb0 593d f9e2 9b3b 5d1e 50bd
00000040: 7c7d 54bd 707b e6ba ba3b 023c 08ca d43c
00000050: eca6 ecbb 0d8d 7dbb 459c a4bd 6624 09bd
00000060: 129a 0cbd 943d 4fbd 9eac 8b3d 684b 0ebd
00000070: 02d5 19bd f0a0 4bbd 5434 1a3d 7d55 00bc
00000080: 2699 b6bd 0d1c 62bd f90a eabd 09c0 7ebd
00000090: 6be6 edbc 2a55 aabd 32e5 17bd 27f2 9abd
000000a0: 4946 6f3d 7a9b 23ba 2a01 4fbd 1639 94bd
000000b0: 17b5 613d 0656 08bc 3864 9dbd 2937 66bd
000000c0: 41c6 c8bd 2569 2b3d f0e8 523d bfe6 2d3d
000000d0: da20 19bd c9e5 20bd 567d bdbd 47c7 5b3c
000000e0: 84cd d13c 42da 2f3d bc66 bebd 1482 a9bd
000000f0: e144 093c f645 003d 21c0 583d 02df 60bd
00000100: 2539 a0bd ebda efbb a938 8b3c 9e1d acbd
00000110: fd7e 84bd 0199 c7bc 48d8 613d cc22 593d
00000120: b820 35bd 2d44 85bc d3fd aebd 6361 a2bd
00000130: 738f a9bd 2c14 dabc b565 bcbd a05a 993c
00000140: a874 8cbb 12ae 2fbe cfcb b3bd fa11 dd3c
00000150: 1333 033d ad88 81bd b8d6 cabd 51b5 84bb
00000160: c5b2 383b ff8c e2bd 0334 c23b 3eac 4dbd
00000170: 2575 323c 85a6 91bb be10 9c3c 246b ec3b
00000180: 1652 6e3d 51ce 9d3c 14f5 96bc 3d95 bdbd
00000190: ef36 bfbd 08cc 103c 1599 40bd 876e b7bd
000001a0: 0a82 d2bd 3321 75bc c50a e3bc d0f5 0b3d
000001b0: 0cd9 843d 091a 663a 2663 ccbd 79e8 ca3b
000001c0: aca9 26bb 9298 c53d 589d d03c 1a14 b7bd
000001d0: 8901 38bc 33dc cebd 5919 95bb ae16 74bd
000001e0: 62c7 20bd 5863 9b3a 134c 18be ee5e 393d
000001f0: 7212 143d 0875 80bc 6087 8b3c 477f 08be
00000200: b7cb 8abd fdae 5dbd 2166 cabd 1ef5 133c
00000210: 7289 30bb 3789 a1bd 6c59 073d 6b44 31bd
00000220: db59 673c e41d 3e3d fc66 26bc bc16 8abc
00000230: 4a01 8b3c 9aea babb 7542 053d 899e 4bbd
00000240: ca65 0e3d 5285 3c3c 5740 053d 041e 9cbd
00000250: f66f bfbc a57d e8bd 266b ddbd 0c16 e53c
00000260: 5afa 98bd 7cb2 6dbd cf0f e1bd 0c17 e5bd
00000270: 8117 33bd 395e bfbd 3c90 503c 08a4 71bd
00000280: ace3 d9bc f6c3 cabc 86cc d3bd 8d04 b6bd
00000290: 04e5 a4bd 3a4f 8dbd 014f d5bd 038c 9abd
000002a0: 16c7 9bbc 22f6 abbc c053 97bd fe6d c63c
000002b0: 6011 e73c 745b 0b3d 6d3f 0ebe f273 903b
000002c0: 200f 97bd 54aa 643c db61 bfbc e938 413c
000002d0: 5e4b 60bd fd45 12bb c38c 83bd 8fe8 e7bd
000002e0: 15ac 563c 27ab d0bd 33f1 683d c451 eb3c
000002f0: ede7 87bd 5949 57bd 8922 a8bd 9bf1 07bd
00000300: e3b1 363b b8b3 d43c cc98 a7bd b3cb 9dbd
00000310: 9d8b cdbb faef 72bd 79f1 9d3d 6ca0 57bd
00000320: 2da6 f93c 56e4 93bd baef 14bc 3623 693d
00000330: 36ef debd 24a6 883d e2e3 2d3d dcee 0fbd
00000340: 3471 1cbd 7d64 a0bd 8ee6 043d f63f 09bd
00000350: 24d1 9ebc c189 afbd fb24 34bd cca1 c7bc
00000360: 3ffa 24bd 3b9d a9bd d413 cbbc 0b89 483c
00000370: 6402 e9bc 7748 80bd c57b bdbd 1974 56bd
00000380: 80eb 993d cc84 953c 747d 193b aedb b9bd
00000390: 56dd 97bd 65b6 89b8 fd74 993c f907 2dbd
000003a0: 6273 b4bd 362c 9ebd ce34 8f3b 7d30 84bb
000003b0: 68bf 3bbd efab 7a3c 8688 38bd da1f 43bd
000003c0: 7770 d33b 4598 723b 0005 52bd da79 fbbd
000003d0: b65e 9ebb 4373 5fbc 930e b93c 2567 84bd
000003e0: 826c 89bd 977b 923d 7321 2d3b 81f6 4bbd
000003f0: 1638 663c 0087 87bb f5d6 c3bd 07da c1bc
-0.016424201 -0.0062554367 -0.053832777 -0.015742265 -0.09234574 -0.029730516 -0.027146976 -0.017271582
-0.0165237 0.048261426 -0.1270643 0.037992876 0.008454434 0.053147193 0.004757282 -0.050810207
-0.051877484 -0.0017584395 0.00794881 0.025975242 -0.007222047 -0.003868881 -0.080376185 -0.033481978
-0.03432662 -0.050595835 0.068200335 -0.03473988 -0.037556656 -0.04971403 0.03764756 -0.007832882
-0.089159295 -0.055202533 -0.11427874 -0.062194858 -0.029040536 -0.08317025 -0.037083812 -0.07565718
0.05841664 -0.00062411244 -0.05053822 -0.07237451 0.05510434 -0.008321291 -0.07685131 -0.05620495
-0.09803439 0.04184832 0.051491678 0.042456385 -0.037384845 -0.03928164 -0.092524216 0.013414211
0.025610693 0.042932756 -0.09296939 -0.082767636 0.008378238 0.03131672 0.052917603 -0.054900177
-0.078233995 -0.007319798 0.016994791 -0.084040865 -0.064695336 -0.02436495 0.055137902 0.0530117
-0.044220656 -0.01626786 -0.08544507 -0.07928731 -0.08279314 -0.026620947 -0.091990866 0.018719971
-0.0042863674 -0.17156246 -0.08779108 0.026986111 0.03203113 -0.06324897 -0.099042356 -0.004049935
0.0028182727 -0.11062049 0.0059266104 -0.05021309 0.010892187 -0.0044448995 0.019050952 0.0072149206
0.058183752 0.019263418 -0.01842741 -0.092569806 -0.093366496 0.008837707 -0.04702099 -0.08956628
-0.10278709 -0.014961529 -0.027715096 0.034169972 0.06486711 0.0008777683 -0.099798486 0.0061922637
-0.0025430722 0.09648241 0.025465652 -0.08939381 -0.011230835 -0.101005934 -0.004550141 -0.05959194
-0.039252646 0.0011855168 -0.1487277 0.045256548 0.036150403 -0.015680805 0.017032325 -0.13329802
-0.06777137 -0.05412196 -0.09882761 0.009030608 -0.0026937393 -0.078875 0.033044264 -0.04327814
0.014120544 0.046415225 -0.010156389 -0.016856544 0.016968388 -0.005704236 0.03253408 -0.049711738
0.034765042 0.011506395 0.032532062 -0.076229125 -0.023368817 -0.1135209 -0.108114526 0.027964614
-0.07469626 -0.058031544 -0.109893434 -0.111860365 -0.043723587 -0.093441434 0.012729701 -0.058994323
-0.02659782 -0.024751645 -0.10341744 -0.08887587 -0.08051494 -0.06899877 -0.104154594 -0.07546236
-0.01901583 -0.020991389 -0.07389021 0.02422237 0.028206527 0.034022763 -0.13891383 0.004408353
-0.07375932 0.013956625 -0.02336209 0.011793354 -0.054759376 -0.0022319548 -0.064233325 -0.11323654
0.013102551 -0.10188895 0.05687065 0.028725512 -0.06636033 -0.052560184 -0.08209712 -0.033189397
0.0027877025 0.025964603 -0.081834406 -0.07704868 -0.0062727467 -0.05931089 0.07712073 -0.052643225
0.030474747 -0.07221286 -0.009090358 0.056918345 -0.108854696 0.06672314 0.042453654 -0.035139903
-0.038193896 -0.078316666 0.032446437 -0.033508264 -0.019386835 -0.08571196 -0.04398058 -0.024369143
-0.040277716 -0.082819425 -0.024789728 0.012239705 -0.028443523 -0.062638216 -0.09252123 -0.052356813
0.07515621 0.018251799 0.0023420723 -0.09075104 -0.07415263 -6.566643e-05 0.018732542 -0.04224393
-0.0881107 -0.07723276 0.0043703085 -0.0040341006 -0.045836836 0.015299781 -0.045052074 -0.047637798
0.006452616 0.003701703 -0.0512743 -0.12279101 -0.004833068 -0.01363832 0.022589957 -0.06464986
-0.06710149 0.07152479 0.0026417642 -0.04979563 0.014051458 -0.0041359663 -0.09562484 -0.023663534

linear2.bias f4 [3]
00000000: 123d e6bd 9b30 84bd 8f9c f5bd
-0.11242117 -0.06454583 -0.11992752
